models/01_polynomial.pt (torch, 29473 bytes, 7 tensors)

layers.0.weight f4 [64, 1]
000000 23 bb 49 3f 00 9c 57 3f 54 8d 9c be 3d 04 69 3f
       0.7880117 0.8422241 -0.30576575 0.9102209
000010 14 ca ba ba 32 6b 25 3a bb e7 04 bf ac 83 1b 3f
       -0.0014250898 0.0006310224 -0.5191609 0.6074779
000020 4f c4 66 3f 99 b0 34 bf 02 af 64 3f 82 e0 8b 39
       0.90143293 -0.70581967 0.8932954 0.00026679417
000030 ca 74 47 3f 01 f4 97 3d 4a 1c 01 3f cd b5 30 be
       0.7791258 0.07419587 0.5043379 -0.17256851
000040 26 4f 43 3f 38 87 c8 36 ca 8d fb be 9a e7 b9 3e
       0.76292646 5.976206e-06 -0.49131614 0.3630951
000050 30 59 c9 be 68 1c 04 31 50 83 c3 be b9 94 35 3f
       -0.39325857 1.9224675e-09 -0.3818612 0.7093006
000060 37 e7 33 bf 72 91 db be 8b f6 89 be a5 2f 05 bf
       -0.7027468 -0.42884403 -0.2694591 -0.52025825
000070 56 d6 9c 3d 10 c7 7c bf f9 f4 6e 3f b9 d1 59 bf
       0.07658069 -0.98741245 0.9334255 -0.85085636
000080 ad 08 42 3f b7 bd 5a 38 77 34 9d be 04 0f 34 3f
       0.7579449 5.2151936e-05 -0.3070409 0.7033541
000090 0d 2b 8f 37 13 b9 46 3f bd 1a 45 3e 26 71 93 bc
       1.7066975e-05 0.7762615 0.19248481 -0.01799829
0000a0 9c d8 9a 3e 85 f3 f3 bb 28 85 81 3d 32 66 65 3f
       0.30243385 -0.0074448013 0.06324226 0.8960906
0000b0 21 ab 29 3f a5 b6 f4 be 8c 09 0a 3f 4d 92 4d 3e
       0.66276747 -0.47795597 0.5392082 0.2007534
0000c0 df 6c 08 3f d3 fe 13 bf b4 88 70 bf b4 4d b2 be
       0.53291124 -0.57810706 -0.9395859 -0.34824908
0000d0 74 d0 42 bf 85 f3 59 3f b7 c3 80 3e c9 c4 f5 3e
       -0.76099324 0.85137206 0.2514932 0.48001698
0000e0 74 e7 ac 3e 42 a3 3b a6 d6 ea 4b 3f 52 0f 22 bf
       0.33770335 -6.5099914e-16 0.79655206 -0.63304627
0000f0 85 2a 5d a8 b0 1a 2d bf f0 95 c9 3e 00 9d e3 bc
       -1.2277184e-14 -0.67618847 0.39372206 -0.027784824

layers.0.bias f4 [64]
000000 1c 19 64 3e 6f 6f 79 be 3a 04 41 3f ec 34 1f bf
       0.22275203 -0.24358915 0.75397074 -0.6219013
000010 6d 3c 39 be b0 43 39 be 1a 1f 60 3f 8b 18 8c 3e
       -0.18089457 -0.18092227 0.8754746 0.27362475
000020 dd 4f 5e 3f 11 a6 46 bf b5 2e 7b bf c4 fa aa be
       0.8684061 -0.7759715 -0.98118144 -0.33394444
000030 64 47 25 bf df 63 ae 3e 92 2d 99 3e 84 9a 50 3f
       -0.6456206 0.3406057 0.2991758 0.8148577
000040 c2 93 0c bf ed be 7e be a8 ea 0a 3f 8b 6b a3 be
       -0.5491296 -0.2487752 0.5426431 -0.31917986
000050 61 d2 28 3f 4c 84 39 bb 29 60 23 3f d7 04 40 bf
       0.6594601 -0.0028307615 0.63818604 -0.75007385
000060 31 82 ef be 35 72 be 3e e6 77 70 3e 85 8e 94 be
       -0.46779016 0.37196508 0.23483238 -0.29014984
000070 c5 49 1b 3f 9f 5d 39 3f 7a 3f 34 bf 7d c3 f4 be
       0.6065944 0.7240848 -0.7040936 -0.47805396
000080 74 2f 64 3f 9f c4 ce bc 06 3e ad be 79 77 67 bf
       0.8913491 -0.02524024 -0.33836383 -0.90416676
000090 6d e0 26 be 09 68 ef 3d 8b ee 95 bd 97 39 92 be
       -0.16296549 0.11689765 -0.07320889 -0.28559563
0000a0 48 69 84 bc 40 e6 7f be 35 aa c8 be 74 cf 0f bf
       -0.016163483 -0.24990177 -0.39192358 -0.56175923
0000b0 a1 fa 50 bf 7c 0d 08 bf 7a 38 70 3f ac 1c 48 3e
       -0.8163243 -0.53145576 0.93836176 0.19542187
0000c0 f3 2c 59 3e a5 22 5b bf 3e 5b 1b bf 76 a6 b4 be
       0.21208553 -0.8559974 -0.606861 -0.3528325
0000d0 1c 8e 78 3e b2 c7 5b bf 0d 60 de be 03 62 10 bf
       0.2427296 -0.85851586 -0.43432656 -0.56399554
0000e0 d2 7a 0c bd 54 40 20 bd bd ff df bd 7e d2 27 bf
       -0.034296818 -0.039123848 -0.1093745 -0.6555556
0000f0 f4 58 81 be d2 77 10 bf e0 67 8c be ec 0d ae be
       -0.25263178 -0.5643283 -0.27423 -0.33994997

layers.3.weight f4 [64, 64]
000000 bd ee be 3d 30 ba 37 bd df 92 02 3e f3 ac 07 3c
       0.093228795 -0.044855297 0.1275134 0.00828098
000010 50 7d d9 ae 7e ac 0f 2c 1b 8a fb bb e0 83 84 bc
       -9.8902775e-11 2.0417275e-12 -0.0076763756 -0.016176164
000020 a4 eb 6e bd a7 38 f7 bd 28 ff b2 bc 13 27 35 25
       -0.058330193 -0.120713525 -0.021850184 1.5712486e-16
000030 54 bb 22 bc b5 03 8c bd a1 07 ca 3d f8 9b 7c bd
       -0.009932358 -0.068366446 0.09864736 -0.06167218
000040 3c a0 a2 bd 3b 35 35 a6 f8 e2 9f 3d 92 71 0a bd
       -0.079407185 -6.286913e-16 0.07806963 -0.033799715
000050 d8 2f 15 3e 2e 25 36 ad 0d 0e 66 3d f4 e3 fc bd
       0.14569032 -1.0353758e-11 0.056165744 -0.12348166
000060 85 e4 a5 b8 83 e6 47 bd da 6a 24 3e 52 18 88 bd
       -7.910378e-05 -0.048803817 0.16056386 -0.06645264
000070 9d f3 b2 3d 6c df 86 3d 03 bf af 3b d9 77 60 bd
       0.08737872 0.06585583 0.0053633465 -0.054801796
000080 95 5d f3 3d 43 bb 65 26 0f 0f 1f ba 62 91 33 be
       0.11883084 7.970412e-16 -0.00060676126 -0.17535928
000090 a8 c0 c8 a7 49 fc 26 bc 08 e7 fd bd 11 60 be 2d
       -5.572003e-15 -0.010191985 -0.12397581 2.1643161e-11
0000a0 1a 1a a4 bc e4 3c 3b 29 a6 df 07 28 1c 18 fc bc
       -0.020031977 4.1575155e-14 7.5425014e-15 -0.030773215
0000b0 62 ea 5c bd 42 9b 1a bd ac 9e 20 bd 75 d3 f5 bc
       -0.053934462 -0.03774572 -0.03921382 -0.030008057
0000c0 17 64 9d bd f4 ec f9 ba ea fe d2 3d c7 35 cf bd
       -0.07685106 -0.001906781 0.10302527 -0.10117679
0000d0 79 cf 7b 3d 75 73 60 bb c1 e8 a8 38 19 fc fe bd
       0.06147716 -0.0034248505 8.054218e-05 -0.124504276
0000e0 97 3e cc 3c b6 7f f0 28 86 dd 88 3c 00 7e cd bc
       0.024932189 2.6700738e-14 0.016707193 -0.025084496
0000f0 e4 d8 86 27 23 79 54 3c 36 3c c7 bd f3 da 73 27
       3.7427625e-15 0.012968334 -0.09728281 3.3841717e-15
000100 70 3a 0f 3c 67 fb 0f bd 33 80 fb bc 6d 62 25 bd
       0.00874196 -0.035151865 -0.030700779 -0.04037707
000110 99 14 bc a4 73 90 02 a6 e2 aa 7b 3d ce 0d 83 3b
       -8.15669e-17 -4.5298576e-16 0.061442263 0.0039994484
000120 65 f7 47 3d 49 4e 32 bd 7f d4 35 bd aa 13 89 26
       0.04881992 -0.04353169 -0.044392105 9.511615e-16
000130 1e ac 1e bd 0c e5 18 bc 8e 4d 94 3c 3f bd db bd
       -0.038738362 -0.009331953 0.018103387 -0.10729455
000140 72 97 ef bc 8e a9 62 a7 64 fe d9 3d ec 5b 06 bd
       -0.02924702 -3.1455716e-15 0.10644224 -0.032802507
000150 5f c3 05 be 93 84 34 aa 6e 90 cc bc f1 d3 08 bd
       -0.1306281 -1.6033207e-13 -0.024971213 -0.033405248
000160 09 06 0c 3c 2e 79 69 bd 47 07 6d 3d fd 48 db bc
       0.008546361 -0.05700033 0.05786827 -0.026768202
000170 1e 64 23 bd 2d 16 11 3e d3 87 15 bd 7e fa da bc
       -0.0398904 0.14168616 -0.036506485 -0.026730772
000180 74 c5 e8 3c 20 98 15 2a 58 59 9c bb 2f 31 e7 bc
       0.028414465 1.3286637e-13 -0.004771393 -0.028221695
000190 c3 98 24 ac 2f 8b df bb e2 5a 13 bd 76 db 13 ad
       -2.3390602e-12 -0.006822012 -0.035975344 -8.404713e-12
0001a0 79 78 d5 bc 28 5d f2 2e 6a cd e9 28 b8 fb 4d bd
       -0.026058422 1.1021434e-10 2.595728e-14 -0.050288886
0001b0 33 3e 19 bd ea 9d 21 bd 87 12 e9 3a 44 0c 08 3d
       -0.037412833 -0.03945724 0.0017782011 0.033214822
0001c0 70 89 79 ba 7e 5f 02 bd c4 c6 ca bc f8 83 5b bd
       -0.0009519076 -0.03182935 -0.024752982 -0.053592652
0001d0 b8 a1 38 bd 00 28 06 bd f9 40 18 2b d0 97 f9 bc
       -0.045076102 -0.03275299 5.4091416e-13 -0.030467898
0001e0 35 94 84 bc 09 13 9e 28 b0 8a 6e bc 5d 05 8d bd
       -0.016183952 1.7549779e-14 -0.014559433 -0.068857886
0001f0 24 ba f7 26 80 ab 4a bd 0d c8 3e bd d9 84 1b 30
       1.7189521e-15 -0.04947996 -0.046577502 5.657746e-10
000200 ec 70 b2 3d 48 c0 84 bd 66 bb be 3d 9a 1b 2f 3d
       0.087129444 -0.06481987 0.09313087 0.042750932
000210 cd 6e eb 2b d5 06 6a 2d b8 6b fe 3d 9d 69 ef 3b
       1.6728508e-12 1.3302877e-11 0.124228895 0.0073062913
000220 0b 72 a8 3d 7d 03 a3 3d 4b 72 af bd 55 cf e5 a1
       0.08224877 0.0795965 -0.085667215 -1.5572524e-18
000230 b2 72 92 bd 3b 23 82 bd d4 e5 c4 3d 87 a1 b1 bd
       -0.07150783 -0.06354376 0.09614149 -0.08673387
000240 e3 db 6c 3c f1 f1 25 ad ec 1c 02 3e aa 60 02 be
       0.014456722 -9.432886e-12 0.12706345 -0.12732187
000250 d4 b8 4a bd 0a 65 50 27 af 4b c9 3d 31 38 64 be
       -0.049492672 2.8920572e-15 0.098288886 -0.2228706
000260 90 ee 94 bc 1c 06 99 bc c8 66 53 3d f6 a1 1a bd
       -0.018180162 -0.018679671 0.05161169 -0.037752114
000270 92 e8 17 bc 46 62 82 bc 8d 2c ea bd d3 3a cf 3d
       -0.009271758 -0.015916001 -0.11434279 0.10118642
000280 8d 8f 06 3e 10 a4 32 a6 7e 3b f1 bc ce 47 3c be
       0.13140698 -6.19785e-16 -0.029447313 -0.18386766
000290 de 60 a4 30 d5 3b 64 bd 49 0b 0e bd 92 fa ff 28
       1.1960102e-09 -0.055721123 -0.03467873 2.8419355e-14
0002a0 ba 32 a7 bd 54 3c 48 a6 de 2b a7 27 14 87 03 bd
       -0.08163972 -6.94707e-16 4.6399372e-15 -0.032111242
0002b0 4c eb 09 be 22 70 30 bd a3 f8 08 bb 5e b8 0e bd
       -0.13468665 -0.04307569 -0.0020900152 -0.034843795
0002c0 f2 da 74 bd 72 fe ad 3a 6b b8 34 bd a9 65 b9 3c
       -0.059779115 0.0013274683 -0.044121187 0.022631483
0002d0 d5 10 8a bc ae 6b 55 bd d9 d6 53 37 34 11 db bd
       -0.01685373 -0.052104644 1.2626603e-05 -0.106966406
0002e0 05 1e bf bd c8 53 29 28 35 29 ec 3d 98 8c 57 3c
       -0.09331898 9.399552e-15 0.11531297 0.013156079
0002f0 25 1d 72 2a b8 21 d8 3d 59 23 cb bd 5b 1b 87 25
       2.1504029e-13 0.10553306 -0.099188514 2.3437304e-16
000300 17 d0 a3 bd b7 3a e7 bd c6 54 2b 3d f6 2b 86 3b
       -0.07998674 -0.11290496 0.041828893 0.004094596
000310 67 c0 bf 2a f3 13 04 ae 7d dc 93 bd 09 57 ea bd
       3.4061922e-13 -3.0031044e-11 -0.07219789 -0.11442382
000320 c8 41 21 bc d3 b6 f5 bd 5f 16 8b 3c c0 89 dc 26
       -0.009842344 -0.119977616 0.01697844 1.5302904e-15
000330 4c a4 84 bd 93 6c 69 3d 8d 87 4b bd 7d 0d a2 bd
       -0.0647665 0.05698831 -0.04968982 -0.07912729
000340 83 54 05 bd 8f 6c 9e a7 86 8a 12 be 49 dd 0b bc
       -0.0325513 -4.397151e-15 -0.14310655 -0.008536645
000350 16 02 c8 3d 05 c5 70 27 cc bd 1a bd be 01 03 bd
       0.09766023 3.3413495e-15 -0.03777866 -0.031984083
000360 22 a8 21 3c 2b 01 c2 3d 4d ba 5c 3e 51 db 88 3d
       0.009866746 0.09472879 0.21555443 0.06682456
000370 67 df 1c bc 3e 0a 81 bd d4 69 43 bc 5a 21 9a 3c
       -0.009574748 -0.06300782 -0.011927087 0.018814731
000380 7a ef b4 3c 68 ca 5e a9 fb 84 0a be 62 e4 d7 ba
       0.022086848 -4.9469462e-14 -0.1352729 -0.0016471262
000390 23 0d 29 2a 52 09 d8 bd 8f 1a 2f bd 92 35 b2 af
       1.5014773e-13 -0.10548653 -0.042749938 -3.2416075e-10
0003a0 32 12 08 be d3 56 26 29 de 8e 9b 30 6a 5c 2e bd
       -0.13288191 3.6934712e-14 1.131834e-09 -0.0425686
0003b0 f7 39 7d ba 19 68 f9 bd c5 93 43 3d 60 72 51 bd
       -0.00096598215 -0.12178058 0.047748346 -0.051134467
0003c0 90 71 fe bd c0 93 31 bd f0 d5 e9 3c 86 dd 5d bd
       -0.12424004 -0.043353796 0.028544396 -0.05416634
0003d0 53 e2 00 3d 41 14 88 bc 93 2f c3 ae c9 8c c7 ba
       0.03146584 -0.01661122 -8.876024e-11 -0.0015224452
0003e0 aa 2e cd bd 3a 98 5d a8 d7 cb 17 bd 32 64 02 be
       -0.10018666 -1.2300973e-14 -0.03705963 -0.12733534
0003f0 91 2c c6 29 db a1 81 bd 88 b6 36 bc 14 3f dd 2e
       8.8006974e-14 -0.063296996 -0.011151917 1.00611214e-10

layers.3.bias f4 [64]
000000 42 09 e8 bc 67 03 8a bc de a7 1d 3e 0e 43 71 3e
       -0.028324727 -0.016847325 0.15396068 0.23560736
000010 7a c5 89 bc 13 f8 a6 bd b2 87 08 3e 5b d5 83 bd
       -0.016817797 -0.08152785 0.13333014 -0.06437179
000020 e3 e0 c4 3d 9f 16 3e 3d 6c 35 b6 3d f5 3b 34 3d
       0.09613206 0.046408292 0.08896908 0.044002492
000030 68 75 dc 3c 8c 9f 5b 3c 21 ed fe 3d 2b be 6e bd
       0.026911452 0.013404738 0.124475725 -0.058286827
000040 6b 91 55 3d c3 cd 4e bd 09 7c 28 3d 73 db af 3d
       0.052140635 -0.0504892 0.041133914 0.085867785
000050 6b bc 87 3d 42 05 02 be 64 5d 06 3e f9 39 13 bd
       0.06627735 -0.12697318 0.13121563 -0.03594396
000060 ce 0b 24 3e 61 4e 39 3d 3e 0d ea 3d a3 ad 4c 3d
       0.16020128 0.045240764 0.11428307 0.04997028
000070 29 1e 3a 3d 1b d2 d3 3d af 3e 5c 3c ee 9f 29 bd
       0.04543892 0.10342809 0.013442679 -0.041412286
000080 14 ba f6 3d a9 37 18 3e 01 28 0c 3d b4 02 33 3e
       0.1204721 0.14864983 0.03421784 0.174815
000090 09 6c c3 3c e5 be a6 bc 28 72 c1 bd 32 20 da 3d
       0.023855226 -0.020354697 -0.09445602 0.10650672
0000a0 ae 98 99 bc 54 b1 05 3e 5c 1b c4 bd 67 bc 71 3d
       -0.018749561 0.13055927 -0.09575531 0.059017565
0000b0 8c 21 46 bd 9b 59 62 3d 10 cc 05 3e 23 f5 bb 3d
       -0.048371837 0.055261236 0.13066125 0.091776155
0000c0 b9 03 a1 bd bc af 7f bd 68 de b0 bd 10 09 41 bd
       -0.07862038 -0.062423453 -0.086361706 -0.047127783
0000d0 b2 2c fb 3d 4b b5 9d bc 95 7a b5 3d c0 af de 3d
       0.12264384 -0.019251486 0.08861271 0.108733654
0000e0 31 64 cb 3d f9 11 b2 bd fc 3b cc 3d e3 8b 05 bd
       0.09931219 -0.08694834 0.099723786 -0.03260411
0000f0 e4 a7 66 3d 46 0a 45 3d 29 2f 75 3b 11 42 3c 3e
       0.056312457 0.0481055 0.0037412143 0.18384577

layers.6.weight f4 [32, 64]
000000 69 4e 3b 3d 35 53 1f 3e 8a 07 92 bc 9a 94 50 3e
       0.045729075 0.15559085 -0.01782586 0.20369187
000010 1a 8e fa bb c4 c6 06 bd fa 93 8b 3d 1f 5c 86 bd
       -0.0076463344 -0.0329044 0.06815334 -0.065605395
000020 fb ea 4d 3d 3c e2 85 3d 17 0c a0 bd 6c 5a c1 bc
       0.050272923 0.065372914 -0.07814806 -0.023602687
000030 d1 4f bf 3d 21 4c b9 3a ba 6f 6a 3b b7 bc 77 3c
       0.09341396 0.0014137068 0.003577216 0.015120677
000040 d2 78 48 bd bb 36 ee 3d d6 61 4a 3b 55 7e 42 bd
       -0.04894335 0.11631533 0.0030881069 -0.04748376
000050 04 62 b8 3d 3e 3d 14 be 04 42 4f 3c 82 6b 83 3c
       0.0900307 -0.14476487 0.012650017 0.016042475
000060 8d 9c 66 bc cb 5e d5 3d 00 c0 89 bd b0 1c 5e bd
       -0.014075411 0.10418471 -0.06726074 -0.054226577
000070 1c 69 ed bc 20 0c 18 3e 10 4e 78 3d eb 5c a3 bd
       -0.028980784 0.14848375 0.06062132 -0.07976707
000080 fd af 6b 3d 26 71 99 3c 7c ca e2 3d b5 1a bb 3d
       0.057540882 0.018730711 0.11073777 0.09135953
000090 e5 bb ea bc 33 73 cc 3d ca fe 63 bd 3e 7d 0a bb
       -0.028654048 0.0998291 -0.055662908 -0.002113178
0000a0 9b 5c 69 3d 71 48 04 3e 2a 08 74 3c 17 54 d3 bd
       0.05697308 0.12918259 0.014894525 -0.10318773
0000b0 b4 ac 92 bd 7b 57 8d 3d 72 75 81 bc 1f 61 3c bc
       -0.07161847 0.06901451 -0.015803073 -0.011497765
0000c0 84 be ea bd be 0e 61 bd dd 46 96 bd d7 18 85 3c
       -0.11462119 -0.0549457 -0.07337735 0.016247196
0000d0 f2 ed c5 3d 5b 21 fb 3d 57 b1 af 3d 94 af 1a bd
       0.09664525 0.122622214 0.08578747 -0.0377651
0000e0 6b 68 8f 3d 56 1d f9 3d df d4 ca bc 89 e2 8c 3d
       0.07002338 0.121637985 -0.024759708 0.06879146
0000f0 0f 43 a5 bd 1e c2 db 3d cf 73 df bd f5 34 4f 3d
       -0.08069431 0.10730384 -0.109107606 0.050587613
000100 0e 13 d2 3b 65 1d 6d 3d 33 74 a1 3c 9f b1 04 3e
       0.006410963 0.05788936 0.019708728 0.12958382
000110 0f 66 33 3c fd 53 0b 3d 02 46 15 bd a7 8e ac bd
       0.010949626 0.034015644 -0.036443718 -0.08425646
000120 1d df ad bd ea 99 67 bd 0c 7e 92 bc 1f 7b 56 3c
       -0.08489821 -0.05654327 -0.01788237 0.013090878
000130 4d 6e df 3b a1 c4 06 bd 47 92 87 3d 4a 77 2c 3c
       0.006818569 -0.032902364 0.06619697 0.010526488
000140 7e 49 5c bd 34 ce e1 bb 4b 22 8c bd 5a 5c 40 bd
       -0.053781025 -0.0068910364 -0.06842478 -0.046963073
000150 04 b0 e2 bd b8 89 75 ba e5 b9 4e bd c8 85 68 3c
       -0.110687286 -0.000936653 -0.05047025 0.014192052
000160 3c 04 d1 3d f9 70 aa bd 2b 5e 59 bd ba 09 a4 bd
       0.10205886 -0.08322329 -0.05306832 -0.08009668
000170 aa 85 28 3d 13 7d 97 3d 62 f9 4a bd 6c 70 13 3d
       0.041143097 0.07396903 -0.049554236 0.035995886
000180 10 12 58 3d 05 78 d0 bd f6 ef e5 ba 31 4d 17 bd
       0.0527516 -0.10179142 -0.0017542827 -0.03693885
000190 cd 95 56 3c dd ae 91 3d 23 45 33 bc c7 14 6c bd
       0.013097239 0.07113431 -0.010941776 -0.057637002
0001a0 3b 05 d8 3d 81 3b 9b bd 54 f5 74 bd b6 67 4b 3d
       0.10547873 -0.07579709 -0.059804276 0.049659453
0001b0 18 27 9e 3c 2c d5 bc 3d 04 a0 49 bc 81 3f 8a 3d
       0.01930575 0.09220347 -0.012306217 0.06750394
0001c0 36 22 b6 bd bd 3d a8 bc 1b d9 59 bc 5f 3a c7 3b
       -0.08893244 -0.020537252 -0.013296391 0.0060799564
0001d0 d4 4f 32 bd 0f 04 08 3d a8 70 92 3d 2b cb 73 3d
       -0.04353316 0.033206996 0.07150394 0.059519928
0001e0 f2 07 cb bc f9 f9 f7 3d 01 71 c0 bd 9e 2a cc bc
       -0.024784062 0.121082254 -0.09396554 -0.024922665
0001f0 93 1a 58 3d f4 61 1c 3d 2a b1 a7 3c 24 e5 8e bd
       0.05275972 0.038179353 0.02047022 -0.06977299
000200 98 18 80 3d d7 5a 01 3b 69 8e 0e be fa f0 3d 3b
       0.06254691 0.0019737983 -0.13921513 0.0028982745
000210 39 a7 b4 bd e4 27 b2 bd cc dd 98 bd 58 01 fc 3d
       -0.08820958 -0.08699015 -0.074641794 0.12304944
000220 df 92 4f 3d 06 af b8 bd 31 93 91 3b 7e 10 84 bd
       0.050677177 -0.09017758 0.0044425954 -0.06448458
000230 9c 91 3f be e3 44 1d be 64 58 ae bd c0 78 cd 3c
       -0.1870789 -0.1535831 -0.08512953 0.025081992
000240 ac c8 08 bc 6b 0d 8a bc 5f dc 6f bd d7 77 6d 3d
       -0.008348625 -0.016852101 -0.05855977 0.057975616
000250 53 6f 99 bd 57 32 22 bd 08 d8 ec 3d 24 2c 0b 3e
       -0.074919365 -0.03959879 0.11564642 0.13591057
000260 04 d4 a5 bd c3 43 aa 3d 44 ec f8 3b 82 70 4b 3d
       -0.080970794 0.08313706 0.0075965244 0.049667843
000270 26 21 2f bc 41 a3 c7 bc ea c9 0e 3e 0b 24 df 3d
       -0.010689056 -0.024369838 0.13944212 0.108955465
000280 cc 11 3f be f9 0b 27 bd 42 41 ce bd a4 ee 21 bc
       -0.18659133 -0.040782902 -0.10071041 -0.0098835565
000290 e6 a0 ac bd a8 59 06 be 77 9b 15 bd a4 a6 ab bd
       -0.084291264 -0.13120139 -0.036525216 -0.083813936
0002a0 5e 64 96 bd 83 17 1b 3e bf 9f df 3d a3 99 3b 3d
       -0.07343362 0.15145688 0.10919141 0.045800816
0002b0 ff e5 0b bc 5f 4b b5 ba 39 e0 e1 bd fe 96 00 3d
       -0.008538722 -0.0013831666 -0.11029095 0.031393997
0002c0 03 ac 3f bd ce 0d 62 bd 3a 20 56 bd 5a 1a 65 3d
       -0.046794903 -0.055188946 -0.052276827 0.055933334
0002d0 1e be 17 3e c2 ef 61 bd 8a fb d8 3c 32 6b 26 bd
       0.14818618 -0.05516029 0.02648713 -0.040629573
0002e0 0e 81 e7 3c 62 68 72 bd 7e 7f 93 bc 4b c0 fe bb
       0.02825978 -0.05918158 -0.018005129 -0.007774388
0002f0 97 78 f7 bc 7b 85 15 be ab 0a 81 3b 00 9d 7c 3d
       -0.030208869 -0.146017 0.0039380393 0.061673164
000300 66 37 17 bd 29 49 b8 bd 11 cf 51 3d b7 7a 33 be
       -0.036918066 -0.08998329 0.051222865 -0.17527281
000310 88 47 3b bd 2a 4b 8c 3d 59 e5 e6 3d 11 b8 b4 bd
       -0.045722514 0.06850274 0.11274213 -0.088241704
000320 79 f8 11 be bf 82 72 3c 47 e6 16 be ab 0b 84 3c
       -0.14254941 0.01480168 -0.14736281 0.016118845
000330 ff f3 9b bd 6c 3b ff bb 05 55 05 3e 43 7b 72 bd
       -0.07614898 -0.007789066 0.13020714 -0.059199583
000340 53 6a 4c 3b d8 2d fe bd 05 86 09 3c ee 94 fd 3d
       0.0031191304 -0.12411088 0.008393769 0.12381922
000350 9a 87 0b be 61 ac f2 3c fd 0a f6 3d 29 03 6d 3b
       -0.13625947 0.029623212 0.120138146 0.0036165214
000360 05 82 9b bd 51 cb c6 bd f1 d0 26 bd cd a8 a2 3d
       -0.07593159 -0.09706748 -0.040726606 0.079423524
000370 bb 81 16 be 84 ba 47 3d 2d 51 e7 3b 8f 34 b0 3c
       -0.14697926 0.04876186 0.0070592375 0.021509437
000380 eb d4 3d bd ca 4e bb 3d 6d 78 49 bd 18 7c fa bd
       -0.046345633 0.09145887 -0.049187113 -0.122307
000390 12 ba ee bd da ef c0 bd 66 2e 99 bc d9 a6 18 3e
       -0.11656584 -0.09420748 -0.018698882 0.14907397
0003a0 29 e3 ca bd 48 44 f2 bc a1 ac 55 bd 9f 86 e6 bd
       -0.099066086 -0.029573575 -0.052166585 -0.11256146
0003b0 5b 5d 9f 3d 85 3a 81 bc 12 74 a8 bc 20 f3 8f 3d
       0.07781478 -0.015774975 -0.02056316 0.07028794
0003c0 f4 0e dd 3c 89 b5 8a 3c 25 95 48 3d 7f 3d 2a 3e
       0.02698467 0.016932266 0.04897036 0.16625021
0003d0 39 5d f5 3c 46 78 95 3d 84 4b 82 3d bd 40 fb 3d
       0.029951679 0.07298331 0.0636206 0.12268207
0003e0 6e a8 fc 3d 98 3d 85 bd 9f b3 43 be 2c 47 b7 3d
       0.12336813 -0.06505889 -0.19111489 0.08949122
0003f0 28 d0 b3 3d e8 28 93 3d 0a eb 3b 3d 51 b3 f1 3c
       0.08779937 0.071855366 0.045878448 0.02950445

layers.6.bias f4 [32]
000000 5a 3b cf 3d 34 02 27 3d 98 4f 13 3e b2 81 1e 3e
       0.10118742 0.040773585 0.14385831 0.15479162
000010 20 51 b9 3c 4b 2e af 3d 90 07 70 3d 1b a3 95 3d
       0.022621691 0.085537516 0.058600962 0.073065005
000020 be 89 12 3e 4e 46 8d 3d cf 1b 92 bd b9 61 16 bc
       0.14310357 0.06898175 -0.0713421 -0.009178572
000030 ea 69 0a be 41 50 a7 3c a5 8e a3 3d a3 d6 f9 bb
       -0.13516966 0.02042401 0.07986192 -0.0076244636
000040 f2 87 f3 bd b0 64 c2 bd 16 b9 da 3d 04 5a 66 3d
       -0.11891164 -0.09491861 0.106798336 0.05623819
000050 be ec 41 3d 50 37 cd 3d a2 de 11 3d 47 0f b9 bb
       0.047344916 0.10020316 0.03561271 -0.005647573
000060 08 5a 45 bc 55 14 b0 bc 9a 78 87 bd e5 22 d5 bd
       -0.012045391 -0.02149407 -0.066148 -0.10407046
000070 0d 69 14 3c 1d 1a d4 3d 5a e6 3c 3e 22 f0 59 3d
       0.009058249 0.10356543 0.18447247 0.053207524

layers.8.weight f4 [1, 32]
000000 31 19 0c 3e 3a 02 85 3d 23 5e 36 be c3 00 07 be
       0.13681485 0.06494565 -0.17809348 -0.13183884
000010 7e 64 bf bc 43 aa 3f be d3 a6 cd 3b ba c3 44 3d
       -0.023363348 -0.18717293 0.0062759905 0.048038222
000020 10 3f 33 be 5c cf 96 bd 72 fe 36 be 1d a9 39 3e
       -0.17504525 -0.073637694 -0.178705 0.18130918
000030 65 8f a5 3d 2a 60 ee bd d7 f6 1d 3e a6 b1 25 be
       0.08083991 -0.116394356 0.15426193 -0.16181049
000040 53 a8 09 3e c7 32 3e bd c7 8d 7f 3d 5e f7 0b 3e
       0.13443117 -0.046435144 0.06239107 0.13668582
000050 f7 a2 c3 3d fe 3e a9 3d 96 68 8d bd 49 c9 59 3c
       0.095525675 0.08263968 -0.06904714 0.013292619
000060 c6 75 ea 3d 6b c9 60 bb 82 f1 75 be 18 2e 96 3c
       0.11448245 -0.0034299742 -0.24017909 0.018332526
000070 c0 45 09 be e7 23 f3 bd 21 57 05 3d 9d 3d 17 3e
       -0.13405514 -0.11872082 0.032553796 0.14769597
